…
[34m[1mhyperparameters: [0mlr0=0.001, lrf=0.1, momentum=0.937, weight_decay=0.0005, warmup_epochs=3.0, warmup_momentum=0.8, warmup_bias_lr=0.1, box=0.05, cls=0.5, cls_pw=1.0, obj=1.0, obj_pw=1.0, iou_t=0.2, anchor_t=4.0, fl_gamma=0.0, hsv_h=0.015, hsv_s=0.7, hsv_v=0.4, degrees=0.0, translate=0.1, scale=0.9, shear=0.0, perspective=0.0, flipud=0.0, fliplr=0.5, mosaic=1.0, mixup=0.3, copy_paste=0.0
[34m[1mWeights & Biases: [0mrun 'pip install wandb' to automatically track and visualize YOLOv5 ðŸš€ runs (RECOMMENDED)
[34m[1mTensorBoard: [0mStart with 'tensorboard --logdir ramen', view at http://localhost:6006/
Overriding model.yaml nc=1 with nc=158

                 from  n    params  module                                  arguments                     
  0                -1  1      8800  models.common.Conv                      [3, 80, 6, 2, 2]              
  1                -1  1    115520  models.common.Conv                      [80, 160, 3, 2]               
  2                -1  4    309120  models.common.C3                        [160, 160, 4]                 
  3                -1  1    461440  models.common.Conv                      [160, 320, 3, 2]              
  4                -1  8   2259200  models.common.C3                        [320, 320, 8]                 
  5                -1  1   1844480  models.common.Conv                      [320, 640, 3, 2]              
  6                -1 12  13125120  models.common.C3                        [640, 640, 12]                
  7                -1  1   5531520  models.common.Conv                      [640, 960, 3, 2]              
  8                -1  4  11070720  models.common.C3                        [960, 960, 4]                 
  9                -1  1  11061760  models.common.Conv                      [960, 1280, 3, 2]             
 10                -1  4  19676160  models.common.C3                        [1280, 1280, 4]               
 11                -1  1   4099840  models.common.SPPF                      [1280, 1280, 5]               
 12                -1  1   1230720  models.common.Conv                      [1280, 960, 1, 1]             
 13                -1  1         0  torch.nn.modules.upsampling.Upsample    [None, 2, 'nearest']          
 14           [-1, 8]  1         0  models.common.Concat                    [1]                           
 15                -1  4  11992320  models.common.C3                        [1920, 960, 4, False]         
 16                -1  1    615680  models.common.Conv                      [960, 640, 1, 1]              
 17                -1  1         0  torch.nn.modules.upsampling.Upsample    [None, 2, 'nearest']          
 18           [-1, 6]  1         0  models.common.Concat                    [1]                           
 19                -1  4   5332480  models.common.C3                        [1280, 640, 4, False]         
 20                -1  1    205440  models.common.Conv                      [640, 320, 1, 1]              
 21                -1  1         0  torch.nn.modules.upsampling.Upsample    [None, 2, 'nearest']          
 22           [-1, 4]  1         0  models.common.Concat                    [1]                           
 23                -1  4   1335040  models.common.C3                        [640, 320, 4, False]          
 24                -1  1    922240  models.common.Conv                      [320, 320, 3, 2]              
 25          [-1, 20]  1         0  models.common.Concat                    [1]                           
 26                -1  4   4922880  models.common.C3                        [640, 640, 4, False]          
 27                -1  1   3687680  models.common.Conv                      [640, 640, 3, 2]              
 28          [-1, 16]  1         0  models.common.Concat                    [1]                           
 29                -1  4  11377920  models.common.C3                        [1280, 960, 4, False]         
 30                -1  1   8296320  models.common.Conv                      [960, 960, 3, 2]              
 31          [-1, 12]  1         0  models.common.Concat                    [1]                           
 32                -1  4  20495360  models.common.C3                        [1920, 1280, 4, False]        
 33  [23, 26, 29, 32]  1   1566756  models.yolo.Detect                      [158, [[19, 27, 44, 40, 38, 94], [96, 68, 86, 152, 180, 137], [140, 301, 303, 264, 238, 542], [436, 615, 739, 380, 925, 792]], [320, 640, 960, 1280]]
Model summary: 733 layers, 141544516 parameters, 141544516 gradients, 211.7 GFLOPs

Transferred 955/963 items from /opt/ml/project/final-project-level3-cv-12/yolov5/ramen/test/weights/best.pt
…
